models/noisy24_5_5.pt (torch, 672951 bytes, 8 tensors)

conv1.weight f4 [8, 1, 3, 3]
000000 c5 f6 b0 3d 37 48 84 bd 1c f1 ac bd 4d 34 04 bd
       0.086408176 -0.064590864 -0.084444255 -0.03227644
000010 3f 0f 7a 3e 49 c7 3b 3e 2e 59 95 3e db 94 df 3d
       0.24419878 0.1833774 0.291696 0.10917064
000020 5d 3f 8a 3e da a7 bb bc d2 e6 17 bd 69 c3 03 bc
       0.27001467 -0.022907186 -0.03708536 -0.008042195
000030 a8 e6 1a 3d 63 9f bc 3c 70 53 cc 3d a4 db 38 3d
       0.037817627 0.02302522 0.09976852 0.04513134
000040 f0 bc b1 3e 9d 03 3a 3e 3d 30 a5 3d 20 f3 29 3e
       0.3471446 0.18165441 0.08065841 0.16596651
000050 f0 67 65 3c 90 74 0a 3d af b3 7e 3e 8d 16 38 3e
       0.014001831 0.03380257 0.24873231 0.17977352
000060 e8 a2 d9 3d 94 06 a1 3e 88 f6 70 3e 60 28 23 bd
       0.10626775 0.3145033 0.23531544 -0.039833426
000070 0b b6 74 3d 7f f8 59 bd 46 47 6b bd 67 5e 98 3e
       0.059743922 -0.0532155 -0.05744102 0.29759523
000080 08 7c 0c bd 42 0a b9 3e fc 78 7b 3e 07 19 f5 3c
       -0.034297973 0.3614064 0.2455787 0.02991916
000090 77 8e 5c 3e d6 6e 4d 3e 8b a3 9a bc 6c 20 4f 3e
       0.21538721 0.20061812 -0.018876811 0.20227212
0000a0 41 68 fd 3d d1 5e 06 3d 7a 72 9c 3b 8b 49 ba 3d
       0.123734005 0.032805268 0.004774389 0.090960585
0000b0 04 1d b8 3d a4 31 a6 3c 97 62 c6 3d e7 48 39 3e
       0.08989909 0.020287342 0.09686773 0.18094216
0000c0 11 f1 0d 3e 41 1a d8 3d 9f 57 79 bd ae f6 81 3e
       0.13861491 0.105518825 -0.060874578 0.25383514
0000d0 94 64 47 3d 6e 5a b6 3c 87 21 25 3e 79 15 01 be
       0.048679903 0.022259917 0.16126071 -0.12605847
0000e0 ec fe 1f bd 20 20 97 3e 2a e2 46 ba df 2b 21 3e
       -0.03906147 0.29516697 -0.00075868017 0.15739392
0000f0 2d 42 02 3e 6b fc a2 3e 0f 81 9d 3e dc 4b 98 bc
       0.12720557 0.31833205 0.30762526 -0.01859086
000100 b9 a4 0f bd 8f e8 38 bd 35 29 fa 3d cb 86 a4 3e
       -0.0350692 -0.04514366 0.12214891 0.3213409
000110 72 30 8f 3d 93 a2 13 ba 43 92 90 3e f2 cf df bc
       0.06991662 -0.00056318304 0.2823659 -0.027320836

conv1.bias f4 [8]
000000 30 0a c6 bc d0 7d ad bc 95 00 00 bd 2b 41 95 bc
       -0.02417478 -0.021178156 -0.031250555 -0.018219551
000010 dc 54 39 bc 58 7f b6 bc eb e5 ff bc b0 e7 96 bc
       -0.011311736 -0.02227752 -0.031237563 -0.018421024

conv2.weight f4 [16, 8, 3, 3]
000000 a1 b7 8c bc 53 99 40 3c e6 29 8e 3c 87 b6 71 3c
       -0.017177405 0.011755305 0.017353963 0.014752991
000010 e0 16 9c 3d 3c e3 8e 3d 2c e9 2a 3c e2 13 60 3d
       0.076215506 0.06976935 0.010431569 0.05470646
000020 c5 d7 3b 3d 0a 4b a9 bb 10 a5 b5 3c 0d 89 be 3c
       0.04586007 -0.005166416 0.022173434 0.02325871
000030 4d a7 86 3c c0 99 96 3d 7c 78 70 3d f6 34 cf 3b
       0.016437197 0.07353544 0.058708653 0.006323452
000040 47 dc 19 3d 18 8f a5 3c 46 20 0f bd 60 fa bb 3a
       0.03756359 0.020209834 -0.034942888 0.0014341585
000050 be 73 98 3b b0 37 18 3c 2f 20 b4 3d 8c 7b a7 3d
       0.0046524694 0.009290621 0.08795201 0.081778616
000060 4a dd ec 3a 18 95 a3 3d b9 15 49 3d e2 e2 86 bc
       0.001807132 0.07987422 0.049092982 -0.016465608
000070 33 3c ba 3b 26 1a 23 3d 31 df 9e 39 ad 4b 7d 3d
       0.005683446 0.03981986 0.000303024 0.06183975
000080 9a e5 c6 3d 72 42 81 bb 02 5a 42 3d e5 87 43 3d
       0.09711762 -0.0039446885 0.04744912 0.04773702
000090 d3 7e bd bc 30 49 32 bc 45 33 f9 ba 0e 38 16 bc
       -0.023131764 -0.010881707 -0.0019012472 -0.009168638
0000a0 18 93 be 3c a5 62 52 3d 6e b0 e5 bb bd 3b 3f 3d
       0.0232635 0.051363606 -0.0070095574 0.04668783
0000b0 a0 19 9d 3d e2 66 98 bc 1f e6 24 bc ca 7d 58 3c
       0.07670903 -0.018603746 -0.010064631 0.013213584
0000c0 1d 7d dc bb d5 60 db 3c 44 04 78 3d 52 82 89 3a
       -0.006728782 0.026779572 0.060550943 0.0010491109
0000d0 00 79 52 3d 9e 9e 51 3d 9c 2b c8 bc af b4 e7 3c
       0.051384926 0.05117666 -0.024434857 0.028284399
0000e0 e5 3e e9 3c 0c d3 c5 3c fa e0 bd 3d 3c 8a 95 3d
       0.028472373 0.024148487 0.092714265 0.07301757
0000f0 ee e0 23 bc a5 df 49 3d ab d6 85 3d da 22 3e bc
       -0.010002358 0.04928555 0.06535085 -0.011604989
000100 24 c6 d7 3b 59 50 b6 3c 98 6b 45 3b 2b 2a 73 3d
       0.0065848995 0.02225511 0.0030123945 0.059366386
000110 dc 48 80 3d c2 f6 a1 3b 8a 3f 4a 3d de bf 44 3d
       0.06263897 0.004942746 0.049377 0.04803454
000120 c6 39 9d 3c 8e 01 c9 3a dd 6e 2b bc 3e 5e 30 3d
       0.019192588 0.0015335546 -0.010463444 0.043058626
000130 f2 9a 70 3c cd c3 e6 bb ff 86 c2 3b ba d9 97 3a
       0.014685379 -0.0070423842 0.005936503 0.0011585273
000140 96 20 fa bb 27 16 9d 3c 5d 58 d9 3a 11 07 f2 bb
       -0.007633279 0.019175602 0.001658212 -0.0073860963
000150 53 9a f3 3c 58 95 d8 3b db b6 94 bb 88 ec f7 3a
       0.029736673 0.0066096 -0.0045383996 0.0018915096
000160 d5 99 cf ba 88 f4 b4 bb 58 81 88 3c ab df a9 bb
       -0.0015838692 -0.0055223145 0.016663238 -0.005184134
000170 c6 d5 99 bc ed aa 55 3d e2 ee b3 3b 81 7e 7a bc
       -0.018778693 0.05216496 0.0054911235 -0.01528895
000180 0b 9d 91 3c 5b 3f 31 bb 90 8d 76 bc f7 d4 d8 3c
       0.01777508 -0.002704582 -0.0150484 0.026468737
000190 ea 45 1e 3c e7 62 0b bc 59 e3 2d 3d 80 eb 9b 3c
       0.0096602235 -0.008507467 0.042453144 0.019033194
0001a0 e2 94 b7 bb f7 6f de 3b f5 92 aa 39 4f a6 ea bb
       -0.005602465 0.0067882496 0.00032534418 -0.007160939
0001b0 df cd d6 3b 81 8d 66 bb 22 b0 3a bc 36 79 f8 3c
       0.0065553035 -0.0035179558 -0.011394532 0.030331235
0001c0 57 e1 53 3c 58 3d 25 bc ae eb b1 3c d8 a0 64 3c
       0.012932143 -0.010085426 0.021718826 0.013954364
0001d0 f7 78 f7 bb 27 ba 36 3c c1 99 ad 3b c5 21 e8 bb
       -0.007552262 0.011152781 0.00529787 -0.0070841038
0001e0 3f 0b c0 3c 95 32 71 3c 99 24 e1 bb 39 d1 4b 3c
       0.023442863 0.014721532 -0.006870818 0.012440019
0001f0 1b 06 08 3b 5d 12 cc bb d8 2e db 3c 82 9f 80 ba
       0.0020755592 -0.006227775 0.026755735 -0.0009813162
000200 8e ff 85 bc ed b0 53 3d 87 c5 9f 3c 5f 90 2a bc
       -0.01635721 0.0516824 0.019503368 -0.010410397
000210 a5 f2 a3 ba c4 af 01 3c 0e 43 11 bc 8a 8d 95 3c
       -0.0012508227 0.007915441 -0.008866085 0.018255968
000220 5e d0 b9 3a ff f0 0e bc 14 57 10 3d ea 8d 18 3c
       0.0014176478 -0.00872445 0.035239294 0.009311179
000230 98 af a9 bb 7a d5 0d 3c 79 da c7 3b f2 4a 9f bb
       -0.005178403 0.008656854 0.006099042 -0.004861229
000240 4d a1 01 00 54 e3 07 80 00 85 0a 80 25 80 02 00
       1.497e-40 -7.24398e-40 -9.66066e-40 2.2964e-40
000250 a2 aa 02 80 9c 68 01 00 41 a2 02 80 25 69 01 80
       -2.44883e-40 1.29362e-40 -2.41877e-40 -1.29554e-40
000260 ce 8b 01 00 55 31 03 80 39 ad 01 00 ec 1e 01 00
       1.41988e-40 -2.93203e-40 1.53976e-40 1.02928e-40
000270 1f 0a 01 80 11 1f 00 00 36 74 03 80 ce a0 02 80
       -9.5466e-41 1.1145e-41 -3.17195e-40 -2.41357e-40
000280 b2 03 01 80 f5 2d 00 00 bc 4c 0d 80 a6 05 e0 8c
       -9.3161e-41 1.6486e-41 -1.221389e-39 -3.4516064e-31
000290 26 8a 15 8e 0f af 14 89 69 a0 9c 93 5b ce 0d 8a
       -1.8432184e-30 -1.7897164e-33 -3.9538113e-27 -6.827714e-33
0002a0 33 8a 35 8b 6c 65 28 91 b3 61 1b 8e 98 8d 01 00
       -3.4963302e-32 -1.3284116e-28 -1.9152266e-30 1.4263e-40
0002b0 a5 ae 02 00 ad 11 00 80 64 55 01 80 19 d0 01 80
       2.46322e-40 -6.341e-42 -1.22468e-40 -1.66487e-40
0002c0 1c 1e 08 80 4f 48 03 00 01 68 03 80 b1 81 01 80
       -7.45485e-40 3.01446e-40 -3.12816e-40 -1.3836e-40
0002d0 d4 9b 01 80 c5 af 01 00 6f 48 0a 80 73 58 00 00
       -1.47736e-40 1.5489e-40 -9.44339e-40 3.173e-41
0002e0 d8 91 0a 80 14 ac 02 80 62 9b 02 00 dc b8 00 00
       -9.70674e-40 -2.45401e-40 2.39412e-40 6.6315e-41
0002f0 c3 a3 01 00 0c 60 03 00 d9 07 01 00 ce 29 00 80
       1.50582e-40 3.09962e-40 9.4651e-41 -1.4997e-41
000300 ef 4a 06 80 a2 52 01 80 b3 49 02 80 c9 99 00 00
       -5.77894e-40 -1.21479e-40 -2.10109e-40 5.5168e-41
000310 e1 00 01 00 f6 56 03 00 7b a1 29 81 7c 2c 3f 88
       9.2151e-41 3.06702e-40 -3.1156254e-38 -5.7529263e-34
000320 11 14 44 89 ee 0d 0c 83 ba 9b 28 8f 65 bd e5 8f
       -2.3602077e-33 -4.1158293e-37 -8.313031e-30 -2.2654096e-29
000330 6c c3 a5 8c 3e 93 9e 90 cf be 47 92 4b c6 02 80
       -2.553989e-31 -6.2546874e-29 -6.302852e-28 -2.54805e-40
000340 5b 0e 03 00 0b 46 06 80 35 8c 02 80 71 19 00 80
       2.80656e-40 -5.7614e-40 -2.33968e-40 -9.127e-42
000350 0a 42 01 80 76 38 00 00 5e 9e 02 00 1a 74 01 80
       -1.15526e-40 2.0254e-41 2.40482e-40 -1.33485e-40
000360 78 aa e9 3b 6d 7b 11 3b ef 84 8a ba ed d1 e2 39
       0.007130917 0.0022198812 -0.0010568182 0.00043262486
000370 4a 58 3e bb a5 e4 8c bb 46 fe 09 bb 74 35 80 bb
       -0.0029044324 -0.0042997175 -0.00210561 -0.003912622
000380 8c ec 4e bb c2 1c bb 3b 4f bb 06 3a 8e 9c 8f ba
       -0.0031574098 0.0057102153 0.00051396055 -0.0010956691
000390 68 d1 30 ba 36 f4 4e bb 45 07 59 bb 39 6a b6 ba
       -0.0006745071 -0.0031578667 -0.0033115905 -0.0013917155
0003a0 f2 a1 3e bb 42 6c f1 ba 2c aa d3 3b ed 6f 4f 39
       -0.0029088226 -0.0018419104 0.006459495 0.00019782754
0003b0 74 e2 37 bb 9e ba b3 3a 83 e8 6d bb b5 a0 ae bb
       -0.002805856 0.0013712232 -0.0036301918 -0.0053292164
0003c0 85 c7 3d bb 84 d3 c4 bb 06 ad 9c bb 92 4d 03 3c
       -0.0028958034 -0.00600666 -0.004781368 0.0080141
0003d0 6d e2 65 3b 23 0a c3 ba df 15 06 3b da b3 18 bb
       0.0035077587 -0.001488034 0.0020459814 -0.002330056
0003e0 91 a6 87 bb 5b 24 23 ba 81 79 32 bb ce fa 61 bb
       -0.0041397293 -0.0006223374 -0.0027233067 -0.0034481767
0003f0 cf ab 96 3b e5 dc 47 3b df 57 46 ba a0 20 88 3b
       0.004598118 0.0030496654 -0.00075661944 0.00415428

conv2.bias f4 [16]
000000 56 6d 87 bd 74 1c 90 bc df 44 75 b2 fc 27 98 3d
       -0.06612651 -0.017591693 -1.4276536e-08 0.074295014
000010 c9 75 07 ba 84 c2 02 3b 94 33 24 3d 56 62 5a 3c
       -0.00051673927 0.0019952366 0.04008825 0.013329109
000020 32 ff d2 bb 76 82 e7 3d ac 88 a7 bd 6f 8c a1 3d
       -0.006439113 0.1130418 -0.08180365 0.07888114
000030 7b 0c 3b bd fd a4 0d bd 93 9a 36 bd 15 33 c9 3b
       -0.0456662 -0.034581173 -0.044581007 0.0061401227

fc1.weight f4 [128, 1296]
000000 6f 6a 16 00 c3 55 02 00 ba 90 02 00 b0 cb 00 80
       2.058562e-39 2.14437e-40 2.35589e-40 -7.307e-41
000010 4f 48 01 00 31 96 01 00 93 d8 01 00 fa 4f 00 80
       1.17775e-40 1.45714e-40 1.69528e-40 -2.869e-41
000020 53 8f 01 80 98 32 01 00 c2 39 01 80 92 43 67 b9
       -1.4325e-40 1.09985e-40 -1.12555e-40 -0.00022055049
000030 25 41 73 3a 46 5e 9e 3a be 17 2a 3b ff cd fb 3a
       0.00092794216 0.0012082539 0.0025954093 0.0019211172
000040 55 1b 02 00 93 d2 00 00 b2 67 01 80 e8 4f 39 b7
       1.93476e-40 7.554e-41 -1.29034e-40 -1.1045464e-05
000050 e4 e7 e9 ba 83 f4 4e ba f9 71 42 ba c7 98 0f bb
       -0.0017845598 -0.00078947115 -0.0007417496 -0.002191113
000060 18 bd 8f 3b f9 84 8e 3b 00 2a 02 80 af dc 00 00
       0.0043865554 0.0043493477 -1.98738e-40 7.9166e-41
000070 34 f1 1f bb e0 8d 58 bb a1 ba 86 bb f8 80 09 3b
       -0.0024405243 -0.0033043548 -0.0041116034 0.0020981412
000080 78 68 a8 bb 44 97 b3 ba d4 b4 f4 3b 01 d6 00 00
       -0.005139407 -0.0013701697 0.0074678455 7.677e-41
000090 32 78 00 80 f6 a0 8d bb c2 1f 15 bb 3a a8 bb bb
       -4.3118e-41 -0.0043221666 -0.0022754525 -0.0057268413
0000a0 7f 32 86 b9 01 32 5d 3a 2f db 9d bb 85 96 38 3b
       -0.00025596094 0.0008437932 -0.0048173885 0.0028165889
0000b0 71 14 00 00 e3 a4 01 80 69 19 ac bb a9 4e 30 3a
       7.333e-42 -1.50986e-40 -0.0052520526 0.00067255885
0000c0 29 16 a8 3b db 91 80 ba 85 7f f4 ba 2a 15 01 bb
       0.005129595 -0.0009809093 -0.0018653726 -0.0019696453
0000d0 cd b7 97 3b 5f 6c 01 00 9b bd 02 00 e8 4a 0e bb
       0.004630065 1.30712e-40 2.51689e-40 -0.0021712128
0000e0 fb 65 8c 3a 93 13 ae 3b 31 70 02 3b 86 b2 ad ba
       0.0010711545 0.005312392 0.0019903297 -0.0013252057
0000f0 74 a3 6b 3b 35 3b 83 3b 7a 4a 02 00 5d 25 02 00
       0.003595558 0.0040048608 2.10388e-40 1.97074e-40
000100 2a fe 00 00 9a 24 8f ba e0 2a 23 bb e9 24 91 ba
       9.1177e-41 -0.0010920942 -0.0024897382 -0.0011073622
000110 58 5d 55 b9 f1 fc 3c 39 6e 6e 00 80 d0 fe 00 80
       -0.00020348036 0.00018023305 -3.9615e-41 -9.141e-41
000120 4c 66 01 00 68 d8 15 00 6a 47 00 80 f8 67 01 00
       1.28533e-40 2.006177e-39 -2.5619e-41 1.29132e-40
000130 28 8b 00 80 95 73 02 80 0c 95 08 00 3b 71 01 80
       -4.992e-41 -2.25134e-40 7.88152e-40 -1.32455e-40
000140 9e c7 a5 00 39 e0 00 00 e1 48 00 00 2e 26 01 00
       1.5224466e-38 8.0436e-41 2.6144e-41 1.05532e-40
000150 1e 03 02 00 2a 27 01 00 d7 31 00 00 6f 1c 00 80
       1.84789e-40 1.05885e-40 1.7879e-41 -1.02e-41
000160 69 6c 00 00 04 1a 02 80 75 aa 01 80 49 73 00 80
       3.889e-41 -1.93004e-40 -1.52984e-40 -4.1357e-41
000170 c0 ae 01 00 20 b2 e6 35 93 b6 29 3a 09 9c 0b 3a
       1.54524e-40 1.7188177e-06 0.0006474044 0.000532568
000180 db 12 88 39 c0 6d 45 b5 3d 1c 01 80 8d 17 00 80
       0.0002595399 -7.3547926e-07 -1.01965e-40 -8.448e-42
000190 a3 41 02 80 f3 5d 7a 36 a9 e7 97 b9 2c 98 ef 39
       -2.07217e-40 3.7307589e-06 -0.00028973565 0.0004569901
0001a0 e4 6a 89 39 00 40 bc b0 6a ce d1 3a 8d e4 01 00
       0.00026210316 -1.369699e-09 0.0016006951 1.73824e-40
0001b0 47 0b 01 00 8f 11 01 80 cf fd 98 b9 0c 8a 75 ba
       9.5881e-41 -9.8134e-41 -0.000291808 -0.0009366579
0001c0 97 8f 36 ba e0 a6 1b 3a 5b 3a 38 bb c7 20 1d 3b
       -0.00069641456 0.0005937647 -0.0028110954 0.0023975836
0001d0 25 30 0f 3b e3 57 00 00 82 80 01 00 7f 8b 7f ba
       0.0021848765 3.1528e-41 1.37935e-40 -0.00097482646
0001e0 70 c5 ae ba 81 55 44 bb 30 b3 88 39 1a 45 d2 39
       -0.0013333987 -0.002995819 0.00026073446 0.00040105806
0001f0 dc d1 43 39 de 1f fd 3a 4a 1e 01 80 7b 4c 01 00
       0.00018674828 0.0019311865 -1.02701e-40 1.19272e-40
000200 ad 76 22 bb 22 04 38 3a 56 ae 9a b9 65 af 65 ba
       -0.0024789975 0.0007019659 -0.0002950306 -0.00087617926
000210 22 ec 89 39 94 af e6 39 48 b4 bf 3a 64 1b 00 80
       0.0002630661 0.00043999834 0.0014625872 -9.826e-42
000220 0f c4 01 80 4e 16 24 bb 50 c9 8b b6 2f 59 fe 3a
       -1.62168e-40 -0.0025037709 -4.1659587e-06 0.0019405241
000230 a1 5b 06 3a 54 08 dd b9 5d 82 fd 3a 9e 5a 5a 3a
       0.0005125348 -0.0004215861 0.001934122 0.0008329543
000240 49 f5 01 80 ae 35 01 80 a4 f9 01 00 b2 a7 a6 ba
       -1.79827e-40 -1.11092e-40 1.8139e-40 -0.0012714772
000250 e6 81 2a ba 33 0a 58 39 ba 17 18 39 d7 dd 0a 39
       -0.0006504342 0.00020603165 0.00014504688 0.00013243347
000260 b3 10 02 00 0c 46 00 00 04 b8 01 80 78 76 01 80
       1.89662e-40 2.5128e-41 -1.57848e-40 -1.34334e-40
000270 fd c3 02 00 4a 98 fe b6 3c 75 b3 b7 f6 db 54 b7
       2.53978e-40 -7.5875187e-06 -2.1393054e-05 -1.2687398e-05
000280 d6 7b 01 80 60 36 01 00 87 a8 08 00 0d e9 02 80
       -1.3626e-40 1.11342e-40 7.9514e-40 -2.67274e-40
000290 a7 41 02 80 54 73 00 80 71 05 00 00 08 7b 01 00
       -2.07223e-40 -4.1372e-41 1.952e-42 1.35971e-40
0002a0 b4 1b 08 00 ed 43 25 00 07 da 00 80 34 85 04 00
       7.44622e-40 3.42228e-39 -7.8213e-41 4.15126e-40
0002b0 fb 55 04 00 9d 33 02 80 7a cc 01 00 e5 0c 03 00
       3.98186e-40 -2.02186e-40 1.65188e-40 2.80132e-40
0002c0 15 7f 01 80 52 78 03 00 c8 0b 00 80 61 ae 02 80
       -1.37424e-40 3.18669e-40 -4.226e-42 -2.46226e-40
0002d0 60 2f 03 80 c3 f8 01 80 2d db 00 80 41 29 01 80
       -2.92501e-40 -1.81074e-40 -7.8625e-41 -1.06635e-40
0002e0 d1 0c 03 80 04 a2 01 00 e0 04 01 00 41 3e 01 80
       -2.80104e-40 1.49956e-40 9.3584e-41 -1.14168e-40
0002f0 df f9 06 00 88 2c 02 00 99 4f 02 00 29 f5 01 80
       6.4065e-40 1.99646e-40 2.12225e-40 -1.79782e-40
000300 4e e0 02 80 ed 9d 01 80 da ac 00 00 95 5a 01 00
       -2.64136e-40 -1.48489e-40 6.2007e-41 1.2433e-40
000310 c0 98 00 00 19 94 01 00 11 44 01 80 5e 01 02 80
       5.4796e-41 1.44963e-40 -1.16253e-40 -1.84161e-40
000320 b1 70 00 00 a4 a5 01 80 b1 3f 01 80 a1 94 02 80
       4.0426e-41 -1.51256e-40 -1.14684e-40 -2.36989e-40
000330 27 de 02 00 b0 29 02 00 3f ed 00 00 6a e2 00 80
       2.63364e-40 1.98626e-40 8.5108e-41 -8.1222e-41
000340 60 ec 00 00 e0 f0 02 00 ac 60 03 00 04 bc 00 00
       8.4795e-41 2.7008e-40 3.10186e-40 6.7447e-41
000350 bf 10 03 00 8a d3 02 80 94 d6 00 00 ce f6 00 00
       2.81514e-40 -2.59557e-40 7.6976e-41 8.8537e-41
000360 78 aa 01 00 de ae 01 00 93 a7 01 80 b7 59 00 00
       1.52988e-40 1.54566e-40 -1.5195e-40 3.2184e-41
000370 61 f7 01 00 4c b3 01 00 4c f4 00 00 b6 56 03 80
       1.80578e-40 1.56155e-40 8.7637e-41 -3.06613e-40
000380 c7 fb 01 00 d4 e1 01 80 52 f3 00 00 0c 00 00 00
       1.82156e-40 -1.72847e-40 8.7287e-41 1.7e-44
000390 22 42 00 00 19 8f 00 00 64 a4 02 80 ad a4 00 00
       2.3724e-41 5.1334e-41 -2.42643e-40 5.9075e-41
0003a0 b6 c8 02 00 7b fc 01 00 09 d8 00 80 fc 59 03 00
       2.55673e-40 1.82408e-40 -7.7499e-41 3.07787e-40
0003b0 f6 24 00 00 7b 23 04 80 f0 94 00 00 05 f5 01 00
       1.3259e-41 -3.8007e-40 5.3429e-41 1.79732e-40
0003c0 03 83 01 80 6c 81 06 80 74 cf 01 00 32 4a 11 3a
       -1.38834e-40 -5.97441e-40 1.66256e-40 0.0005542367
0003d0 9a 4e 11 3a e1 4b 11 3a 86 53 11 3a 7a 4e 11 3a
       0.00055430236 0.0005542618 0.0005543757 0.0005543005
0003e0 df 4a 11 3a d4 52 11 3a 31 4c 11 3a 9c 51 11 3a
       0.00055424677 0.00055436534 0.00055426644 0.0005543472
0003f0 51 54 11 3a fe 49 11 3a f4 6c 11 3a 48 ad 0d 3a
       0.0005543875 0.0005542337 0.00055475463 0.0005404544

fc1.bias f4 [128]
000000 03 6f 17 3c 11 c4 a2 3c 95 f7 30 3c 87 b8 3a 3c
       0.009242776 0.019868882 0.010801216 0.011396534
000010 80 36 1a a7 45 32 bb 3b df 76 9a a3 a3 cb 2d a0
       -2.1401338e-15 0.0057127797 -1.6747057e-17 -1.4721048e-19
000020 25 fe 5c 3c a1 0d 23 3c ab d4 c2 3c 7d f1 9d 3c
       0.013488327 0.00995198 0.023783049 0.01928019
000030 c0 35 86 aa c6 21 47 3c 3b 6d 82 3c 27 2c 32 9b
       -2.3840478e-13 0.012154048 0.015921226 -1.4738081e-22
000040 6b a7 cb 3c 7f a6 0b 3d 53 58 47 a8 f2 8f 87 3c
       0.024860105 0.03409433 -1.1065871e-14 0.01654813
000050 48 7f fa 3c 68 7f 69 3c be 20 a2 3c 55 1b 93 3c
       0.03057827 0.014251567 0.019791003 0.017957369
000060 2f 43 a9 9d a5 b4 9c 3c 9f 31 d9 3c 37 dc 88 3c
       -4.4803394e-21 0.019129107 0.026512919 0.01670657
000070 5e bc 1f a7 24 ec e9 3c 3d 0b 24 3d d2 e7 9d 3c
       -2.2167797e-15 0.028554983 0.04004978 0.01927558
000080 ac c6 9d 3c 10 dd f1 3c 5c ec 19 3d 9e 9f 83 3c
       0.019259773 0.029524356 0.037578925 0.016067322
000090 83 f3 90 a8 a7 6b 68 3c d8 ac d8 3c d3 80 ce 3c
       -1.6092818e-14 0.014185823 0.026449606 0.025207913
0000a0 ff 12 09 3d 45 e3 75 3c 70 cf e9 3c 99 8d c7 3c
       0.03346538 0.015007799 0.028541297 0.024359511
0000b0 cd 3a 10 b3 75 83 13 a4 6b 20 e4 3c 7f 8e 08 3c
       -3.358109e-08 -3.1986892e-17 0.02784749 0.008334755
0000c0 9f 27 b9 a3 08 64 c7 3b 78 1f c3 3c 1f 3a c4 3c
       -2.007452e-17 0.0060849227 0.023818716 0.023953496
0000d0 82 55 94 b0 f3 eb 40 a3 64 07 9e a2 81 fc ac 8b
       -1.079272e-09 -1.0458305e-17 -4.283381e-18 -6.6631916e-32
0000e0 e2 8e a6 3c d2 b9 59 91 14 f6 97 a4 9d 54 14 89
       0.020331804 -1.7175542e-28 -6.5902684e-17 -1.7854637e-33
0000f0 ff de 9b b1 6f f1 f2 3c 8e b2 0e a8 e0 c1 04 92
       -4.5364454e-09 0.02965614 -7.921301e-15 -4.1890825e-28
000100 de 4a 1b 97 79 1d c8 26 8a 42 91 ab 17 71 f7 3c
       -5.0177697e-25 1.3885776e-15 -1.0321338e-12 0.030205293
000110 6b 41 d5 3c c8 da 5d 87 1e 6a b2 3c 28 04 0c 96
       0.02603217 -1.6690486e-34 0.021779116 -1.1310421e-25
000120 f3 ee 57 bb 25 89 fd 3c a5 80 2f a2 21 ab 0f b4
       -0.0032948821 0.030949185 -2.3785026e-18 -1.3380169e-07
000130 76 8c 13 3c 9a 2d da a3 ad d6 2b a6 45 6f a9 80
       0.0090056565 -2.365492e-17 -5.9618483e-16 -1.5560115e-38
000140 eb 54 d8 3c 64 f1 9c 3c f0 95 cd 8b 48 23 03 b8
       0.02640768 0.019158073 -7.918873e-32 -3.1265692e-05
000150 eb 10 17 3d 7f fa 0a 3c 20 54 50 3c 99 82 db 3c
       0.03688137 0.0084825745 0.012715369 0.026795672
000160 fe 81 bc 9b 74 ea c1 3c 25 8d a9 3c 37 df 97 3c
       -3.1185997e-22 0.023671366 0.020697186 0.018539054
000170 9a e8 f3 3c 56 33 9d a0 48 c6 64 3c d1 4a c4 3c
       0.029773999 -2.6630806e-19 0.01396329 0.023961456
000180 5e 23 e8 3c d5 b7 2f 95 c4 e7 07 3c ce be 1b 3c
       0.028337177 -3.5485986e-26 0.008295003 0.009505941
000190 e2 1c 0b 3c db 54 bd 3c 00 54 ac 3c a6 27 0b 3c
       0.008490773 0.023111751 0.021036148 0.00849334
0001a0 3c f2 bd b0 a6 35 6e 3c d9 c6 99 3c eb 98 f9 3b
       -1.3820407e-09 0.014539158 0.018771576 0.007617106
0001b0 00 3c e5 2d ef 5f b2 3c 39 d3 d6 3c 1a ac 08 80
       2.6060931e-11 0.02177426 0.026223766 -7.96422e-40
0001c0 2a 31 d1 3c 5b 3d 14 a7 da dd ba 3c 1e ab c8 aa
       0.025536139 -2.0572387e-15 0.022810865 -3.5645873e-13
0001d0 29 46 e5 a6 30 06 1f ad 9e 7b 5c 3c 1e 8f 9b 8d
       -1.5909084e-15 -9.0394775e-12 0.013457207 -9.587067e-31
0001e0 7d 12 5d 3c 8e c2 08 3d 58 82 17 95 1e d4 00 3d
       0.0134931775 0.033388667 -3.059703e-26 0.03145229
0001f0 00 c4 2c 3c 8d 67 1b 3c f3 7a a0 3c 3e 04 cf 3c
       0.010544777 0.009485138 0.019589877 0.025270578

fc2.weight f4 [2, 128]
000000 5a db 87 bd 94 7d d2 3d 61 1b a8 3d 62 fa ab bd
       -0.06633635 0.102778584 0.08208347 -0.08397366
000010 06 a1 97 b6 6f 2d 27 bd 3b 54 0e b1 38 29 36 30
       -4.5188963e-06 -0.040814813 -2.07116e-09 6.626979e-10
000020 45 6e 91 3d 30 81 d8 3c 7a b9 0b be 9b ab 91 3d
       0.0710111 0.026428789 -0.13644972 0.07112809
000030 15 3d 1f b8 a8 31 c0 bd 36 a2 84 bd 7a 04 00 80
       -3.796544e-05 -0.09384471 -0.06476252 -1.606e-42
000040 95 fd 03 be c9 33 3e 3e 42 ff 1e 2b 27 4f d1 3d
       -0.12889703 0.18574442 5.648712e-13 0.10220175
000050 92 e0 4c 3c f2 c4 c6 3d bd 24 b7 bd b8 ab 0a be
       0.012504714 0.09705533 -0.08942554 -0.13542068
000060 93 76 cc 27 24 0a 2c 3d fd b8 85 3d f5 e8 85 bd
       5.6749933e-15 0.04200186 0.06529424 -0.06538574
000070 0f 3c 04 b7 9a 4f 79 3b 75 5c 59 3e 06 2a 2d 3d
       -7.881797e-06 0.003804183 0.21226676 0.042276405
000080 10 e1 ad 3d 99 a4 b4 3d de eb 3f 3e 0c 88 d5 3c
       0.08490193 0.08820457 0.1874232 0.026065849
000090 18 36 25 ac 11 54 f1 3d a2 09 dc 3d 28 1d d3 3b
       -2.3477938e-12 0.117836125 0.10744025 0.0064426847
0000a0 cc 30 8b 3c 18 e2 6d bd 73 7f 24 be c6 98 91 3d
       0.016991042 -0.058076948 -0.16064243 0.07109217
0000b0 67 da 6a bb ed 0a 9d b1 36 1f 40 3c 1b e5 a3 3d
       -0.0035835744 -4.5705435e-09 0.011726191 0.08002683
0000c0 54 a0 47 26 4d bf 54 bd 3b 11 03 be eb 02 28 be
       6.925928e-16 -0.05194025 -0.12799542 -0.16407363
0000d0 7f 20 49 b4 13 c7 79 98 03 ad 19 b8 97 1b cf b6
       -1.8731406e-07 -3.2283003e-24 -3.6639172e-05 -6.1722926e-06
0000e0 be a4 08 bd d5 00 66 b2 d6 be 26 a6 52 d2 01 00
       -0.033360235 -1.3387951e-08 -5.785145e-16 1.67284e-40
0000f0 e6 a6 0d 36 ef 24 25 be f7 5e 3f 2c 9b 06 04 2f
       2.1107785e-06 -0.1612737 2.7195449e-12 1.2007677e-10
000100 37 f0 01 80 26 59 91 23 d5 56 9d ac 1d 4d 7e 3d
       -1.78008e-40 1.5758687e-17 -4.4718487e-12 0.06208526
000110 ff 34 03 bc 41 63 6c ad 2b ca 06 be b2 30 6c 11
       -0.008008241 -1.3437086e-11 -0.13163058 1.8632123e-28
000120 27 7f af bc f8 92 dc 3c 42 d2 3d 11 6e 3b 07 bb
       -0.021422936 0.026925549 1.4974262e-28 -0.0020634788
000130 da 56 e3 3d e4 bb 2a a6 e1 1a 07 27 36 40 a6 00
       0.1110055 -5.923524e-16 1.8749585e-15 1.5267727e-38
000140 36 4a cb 3c eb 89 11 bd eb 32 01 00 6b df 9b b8
       0.02481566 -0.03553192 1.10101e-40 -7.432591e-05
000150 f1 02 4b 3e d6 77 74 bd 5d 46 a3 bd 22 4f 25 be
       0.19825341 -0.059684597 -0.07972405 -0.16143468
000160 9c 89 62 19 cc 73 61 bd d3 5c b0 3d c1 b6 e3 bd
       1.1711716e-23 -0.055042073 0.08611455 -0.11118842
000170 a6 f9 02 bd d0 28 7f a9 7b 08 de bd 31 20 15 be
       -0.031976365 -5.6656773e-14 -0.10841461 -0.14563061
000180 49 bb 0b 3e a9 50 86 2a 2f 39 80 bd 81 02 83 bd
       0.13645662 2.385915e-13 -0.06260907 -0.06396962
000190 96 87 21 bd d5 cc 0d be 55 3f c7 bd 39 8e 92 bd
       -0.039435945 -0.13847668 -0.097288765 -0.07156033
0001a0 51 9f 79 39 89 5f d1 bd fc 32 7f bd 5a 31 4a 3d
       0.0002380584 -0.102233 -0.062304482 0.04936347
0001b0 38 8c a2 2f b4 7d f2 3d 05 05 dd bd 8d a2 03 00
       2.956726e-10 0.11840382 -0.10791973 3.33819e-40
0001c0 94 7a cd 3c 78 5f 8a b4 8d 3c 00 be 5e 91 40 ad
       0.025082864 -2.5773966e-07 -0.12523098 -1.0946214e-11
0001d0 81 86 48 ba 6b 53 65 39 b2 20 b2 3d ee 7c 01 80
       -0.0007649437 0.00021870217 0.086976424 -1.36652e-40
0001e0 b4 a9 1a 3d 28 74 18 bd 5d 3a 01 80 73 63 39 3e
       0.037759498 -0.03722015 -1.12772e-40 0.18104343
0001f0 df 08 13 3e 58 13 2e 3d 1d 25 f7 3a bb 9e 20 be
       0.14358853 0.042498916 0.0018855665 -0.15685551
000200 4a ee c2 3c f3 98 00 be 4d 4d 01 3d a3 69 a3 3d
       0.023795266 -0.12558345 0.03156786 0.07979133
000210 b9 c8 24 36 3f 75 2b 3c 67 5b 2e 35 6e 9d 9c 35
       2.455474e-06 0.010464965 6.495306e-07 1.1668724e-06
000220 bc df b0 bd 27 b3 93 3d 36 bc 42 bd fd 8b cc 3d
       -0.08636424 0.07211905 -0.047542773 0.09987638
000230 9f ff 11 b6 b5 d5 96 3d 91 76 da bd 31 6e 00 00
       -2.1755475e-06 0.0736498 -0.10667146 3.9529e-41
000240 24 d8 09 bd b7 28 96 bd 4a f6 f6 a9 45 20 a0 3d
       -0.033653393 -0.073319845 -1.0967319e-13 0.07818655
000250 98 91 2c 3e 7f aa 9e 3d d2 0c bb bd a2 ca 84 3d
       0.16852415 0.07747363 -0.09133305 0.06483962
000260 be d6 a7 9f 28 b9 cf bd ef 25 23 3e f7 c5 bf bd
       -7.108251e-20 -0.101427376 0.1593244 -0.09363931
000270 64 0e b5 b7 4a a0 1c be d4 e8 35 bb 0b 26 df 3d
       -2.1583583e-05 -0.1529552 -0.0027757185 0.10895928
000280 98 70 b7 bd 23 b9 21 be 92 9a 52 3b ff 27 bf 3d
       -0.089570224 -0.1579328 0.0032135588 0.093338005
000290 37 c8 5f 2e 80 ab 48 bc ae d8 17 3e 45 65 15 3e
       5.0882156e-11 -0.01224792 0.1482875 0.14589413
0002a0 e8 ba 2c be a5 4b f1 3d ea e3 e5 bc 49 90 10 3e
       -0.16868174 0.11782006 -0.02806278 0.1411754
0002b0 0b 81 df ba 72 7b c9 32 a7 00 0e be a6 3c 57 3d
       -0.0017052008 2.3455616e-08 -0.13867436 0.052548073
0002c0 1c 67 e9 a3 94 8c d4 3b b8 9b b0 bd 72 51 65 bc
       -2.5305579e-17 0.006486485 -0.08623451 -0.013996469
0002d0 68 25 20 b4 70 4a b0 88 11 b1 44 36 af ad e9 b6
       -1.491477e-07 -1.0610115e-33 2.9309342e-06 -6.9641605e-06
0002e0 53 d0 ff 3d f6 b3 aa 31 6d 76 59 26 15 00 01 00
       0.124909066 4.9681104e-09 7.5447496e-16 9.1865e-41
0002f0 3d e8 9f 35 7c c5 80 bd 2b 4b 74 ac ad 33 b8 b0
       1.1914013e-06 -0.06287667 -3.4716212e-12 -1.3402449e-09
000300 09 e3 00 80 b2 f6 29 a2 b5 0a 05 ad ed e8 23 be
       -8.1445e-41 -2.303437e-18 -7.562552e-12 -0.16006823
000310 fa bc 10 be 97 11 a9 ae e9 32 a6 3c 60 c8 35 8e
       -0.14134589 -7.688355e-11 0.020287948 -2.240645e-30
000320 8b ee a6 bb b9 cb 42 3e db ef 01 80 78 16 ee 3a
       -0.0050943545 0.19023027 -1.7788e-40 0.0018164655
000330 8b 3f 71 3d 6f 96 68 a5 36 39 2d a6 b4 1c 61 80
       0.05889849 -2.0173761e-16 -6.009897e-16 -8.91834e-39
000340 54 66 05 be 65 94 0b 3e 4c 33 02 00 69 d3 68 ba
       -0.13027316 0.13630827 2.02073e-40 -0.00088816
000350 ff 43 af bd 09 e2 59 3d 86 89 e1 3b 16 94 ad 3c
       -0.08557891 0.05319408 0.006882849 0.021188777
000360 72 7d 87 99 09 2b 0f be d5 c2 db bd f1 dc a8 bc
       -1.400934e-23 -0.1398126 -0.10730521 -0.020613166
000370 63 43 3d 3e 27 28 5b a9 cd cd b7 3d de 76 0b 3b
       0.18482737 -4.8662595e-14 0.089748 0.0021280567
000380 1d 28 0d bc d0 62 92 b1 7c 85 90 3d 42 c2 9f 3c
       -0.008615521 -4.260393e-09 0.0705671 0.019501809
000390 c8 47 68 bd 7c f7 d3 3c 6b b2 fb bd 69 fc 59 3c
       -0.05670908 0.025874846 -0.1228989 0.013304808
0003a0 f5 4e 55 3b 63 1c fc 3d 63 24 03 be 7f cc 0b 3c
       0.0032548283 0.12310102 -0.12806849 0.008532642
0003b0 9b aa 2e af b2 92 d7 bd 14 30 fa bd 11 71 08 00
       -1.5885819e-10 -0.10526027 -0.122162014 7.75245e-40
0003c0 11 1c 28 3e c4 53 f1 2d b7 db 29 bd 17 2e e3 2b
       0.16416956 2.7435727e-11 -0.041469302 1.6142113e-12
0003d0 67 c9 47 b9 14 63 5d b9 f0 98 83 3c bf 65 00 00
       -0.00019053147 -0.00021113112 0.016064137 3.65e-41
0003e0 73 5e ae 3d 49 f3 38 be b5 2b 02 00 5c 5c 9b bc
       0.085141085 -0.18061556 1.9935e-40 -0.018964939
0003f0 b4 ee 1b bd 21 64 61 bd 2e a1 e5 bd 60 60 8b bc
       -0.038069442 -0.05502713 -0.11212383 -0.017013729

fc2.bias f4 [2]
000000 5a 99 0d 3d 3f d0 7e 3d
       0.034570076 0.062210318
