models/noisy24_3_5.pt (torch, 672951 bytes, 8 tensors)

conv1.weight f4 [8, 1, 3, 3]
000000 38 47 53 a3 28 6a c7 a1 c0 37 75 a7 b2 c3 da a0
       -1.1453414e-17 -1.3512864e-18 -3.4030802e-15 -3.7060137e-19
000010 8e e6 b1 21 7b 62 e8 21 9c 6f ce 9e 78 36 8d a1
       1.2055014e-18 1.5746999e-18 -2.1857259e-20 -9.568949e-19
000020 d6 ea f0 21 69 7d 33 3d 0c 33 fd 3d d6 ea 05 3e
       1.6325193e-18 0.043820772 0.12363252 0.13077864
000030 ea e4 c9 3d 7d 4f 4f 3e 0c 29 5d 3e cc cc b6 3d
       0.09858115 0.20245166 0.2159769 0.08925781
000040 b3 46 0e 3e 0d 95 ba 3d 32 ba 41 3e 06 68 80 3d
       0.13894157 0.091104604 0.18918684 0.06269841
000050 ae 2b d1 bd 05 3c 0c bd dc 8a 59 3d 37 a9 32 3c
       -0.10213409 -0.034236927 0.053110942 0.010904602
000060 b3 60 b7 3e be 62 a9 3e b9 fa 51 bd f5 e4 06 3e
       0.35815963 0.33083147 -0.0512645 0.13173278
000070 e4 0f c8 3e 44 a5 28 3e bd c0 52 3e 68 94 e5 3e
       0.39074624 0.16469294 0.20581336 0.44839787
000080 f8 09 73 3e 02 4e 55 3e 8d 4c af 3d 6a 39 73 3d
       0.23734272 0.20830539 0.08559523 0.059380926
000090 ab de 8e 3e 10 e5 db bd 1b ff 0c bd 87 33 fc 3d
       0.27904257 -0.107370496 -0.034422975 0.123145156
0000a0 95 f2 9a 3e 5d 2d 82 3e 2b 03 8f 3e 2d 4a 02 3c
       0.302632 0.25425234 0.27932104 0.007952255
0000b0 99 55 35 bd d9 7f 42 2b 99 88 40 2b 84 e3 b8 2a
       -0.044271085 6.910007e-13 6.840167e-13 3.2842837e-13
0000c0 df ae bf af 8c 23 65 2a 8c e8 4a 2b 27 fa b1 2a
       -3.486695e-10 2.0351619e-13 7.208754e-13 3.1615094e-13
0000d0 8c a6 16 b1 12 2d 3a 2b bd f3 f0 bc 41 9b d3 3d
       -2.1922544e-09 6.614302e-13 -0.029413098 0.10332347
0000e0 7e 6e 93 bd 33 19 8e 3e 7f a2 7b 3d 45 57 ee bc
       -0.07198809 0.277536 0.061434265 -0.029094348
0000f0 0f 8d df 3c ed b8 a0 3e b6 8c 10 3e 28 40 2e 3e
       0.027288942 0.31391087 0.14116177 0.17016661
000100 55 c8 6c 3e 8a 79 3c be f5 59 a4 3e 9f 56 2d 3d
       0.23123296 -0.18405738 0.32099882 0.042318936
000110 3c 95 83 3d 7d e1 86 3e fd ce 0f 3d 0f 59 a3 3e
       0.064249486 0.2634391 0.03510951 0.31903884

conv1.bias f4 [8]
000000 c3 96 4c a1 aa da eb 3d c3 78 92 bc f5 1b da 3d
       -6.931742e-19 0.11516316 -0.01787985 0.10649864
000010 13 75 0e 3d 88 b6 78 ac e3 fe 4d 3b eb 19 05 bd
       0.03477962 -3.5344245e-12 0.0031432442 -0.03249542

conv2.weight f4 [16, 8, 3, 3]
000000 b7 b0 97 20 2c 79 66 20 04 39 92 20 76 b7 23 9f
       2.5697335e-19 1.952185e-19 2.4771092e-19 -3.4668348e-20
000010 4c ac a1 20 54 75 a1 a1 5d 32 21 a1 bb 78 93 21
       2.7388477e-19 -1.0940841e-18 -5.4615577e-19 9.993065e-19
000020 c8 17 b1 1e 4a 57 f6 3b 12 df 48 bb 1a ee 32 bc
       1.875044e-20 0.00751773 -0.0030650538 -0.010921026
000030 9d 02 ef bb 47 a4 a6 3c 60 1c b6 3b 99 1d cf bc
       -0.0072940127 0.020342005 0.005557582 -0.025282668
000040 dc 91 a1 ba 05 16 f6 3c 4f bc 84 bb cb 56 49 3c
       -0.0012326795 0.030039797 -0.0040507684 0.012288759
000050 86 ea 70 3c 52 68 73 bc dc ac 6d 36 4b be 04 3d
       0.014704352 -0.014856415 3.541637e-06 0.03240804
000060 b6 55 26 bc 36 53 05 bc e9 68 9c 3c 86 dc 99 3c
       -0.010152271 -0.008137515 0.019092994 0.018781912
000070 7d 33 2f 3c a4 ce b4 bc 03 b9 ba bc 73 8e e2 3c
       0.010693428 -0.02207119 -0.022793299 0.027655816
000080 41 70 64 3c 0b 4b 30 bd 35 d2 2c bc 4b 63 5e 3d
       0.013942779 -0.043040317 -0.010548164 0.054293912
000090 e5 d3 43 3a 3e 59 40 3c 25 44 12 3b e7 79 80 bc
       0.00074702344 0.011740027 0.002231845 -0.015683128
0000a0 07 59 c5 3b bc d2 fd 3c 28 d6 75 bc e2 59 f9 bb
       0.006022576 0.030984275 -0.015004672 -0.007609592
0000b0 e0 df ef 3c 4c a8 89 a9 3a 71 f5 28 b6 3f 69 2a
       0.029281557 -6.113217e-14 2.7249568e-14 2.0716661e-13
0000c0 f4 20 e4 29 75 7c ee 28 da a6 ba 28 d8 81 f2 29
       1.01309504e-13 2.6477283e-14 2.0722509e-14 1.0769483e-13
0000d0 6c 5e 85 29 95 89 d4 a8 24 60 f3 3a f3 82 73 3c
       5.922766e-14 -2.3596395e-14 0.0018568081 0.014862764
0000e0 ad ee 05 3c 55 21 57 bc fe 4d 1c 3c c8 1a e2 3c
       0.0081745805 -0.013130506 0.009540079 0.02760066
0000f0 26 e0 24 bc 86 c9 4c bb 62 4e 8f 3c d7 8a fb 3a
       -0.010063207 -0.0031248047 0.01749343 0.0019191158
000100 09 3f 9c 3c 1b 24 85 3a 63 66 95 bc fb a9 8c 3c
       0.019073026 0.0010157855 -0.018237298 0.017170897
000110 f2 2e 00 3d 4b 0b 9a bc 03 3e 25 bc 2c cf e3 3c
       0.03129477 -0.018804213 -0.0100855855 0.027808748
000120 58 61 bb 20 da b2 05 a0 14 43 05 21 87 c4 9c 20
       3.174345e-19 -1.1324715e-19 4.515093e-19 2.655748e-19
000130 50 cc 0f 22 d5 26 cb 20 c1 35 62 21 7f b0 0f 21
       1.9488276e-18 3.4415235e-19 7.664292e-19 4.8683875e-19
000140 6e 6b 14 9f 30 5c bb bc 5c 4d b4 bc 4f 5e 87 bc
       -3.1429083e-20 -0.022871107 -0.022009544 -0.016524462
000150 c2 dd 4d 3c 66 99 e3 3b 20 85 03 bc 31 88 44 3d
       0.012565078 0.0069457768 -0.008027345 0.047981445
000160 02 04 00 3d 60 66 23 3a b9 88 bd bb d5 62 36 bc
       0.031253822 0.00062332116 -0.005784121 -0.011131962
000170 94 bf 77 bc 42 0c fb 3c d7 55 1a 3d 3b e4 df 3b
       -0.015121359 0.030645493 0.03767952 0.006832627
000180 08 5d f6 3c 58 71 37 3d da d3 55 3c 65 e7 22 bd
       0.030073658 0.044785827 0.013050998 -0.039771456
000190 bf 89 0c bd ee 9d 11 bd a4 0c 7a 3c 44 9f 98 3c
       -0.034311052 -0.035551004 0.015261803 0.018630631
0001a0 fa b3 5d bc 4a 64 b4 3d 83 d2 aa 3d 27 85 b3 ba
       -0.013531679 0.08808191 0.08340933 -0.0013696299
0001b0 b5 e6 89 bc 05 e5 a3 bc f7 32 a0 bc 37 1b 84 3c
       -0.016833642 -0.020006666 -0.019555552 0.016126258
0001c0 29 04 ad 3c 11 83 4a ba 80 d8 27 3d 54 ab 77 3d
       0.021120148 -0.0007725219 0.040977955 0.060466126
0001d0 a7 98 78 3c 79 86 f5 2a 69 b1 4e 2b e6 b5 9d aa
       0.015173114 4.3614052e-13 7.343211e-13 -2.801502e-13
0001e0 09 1f 53 2b fc a1 19 2b 62 b9 30 2a 8d f5 df 2a
       7.500533e-13 5.458132e-13 1.5696258e-13 3.9783143e-13
0001f0 6c f9 30 2a 29 05 ce ab cd e8 13 bc bc 60 69 bc
       1.5718476e-13 -1.4638613e-12 -0.009027672 -0.014244255
000200 ae ad 86 bc 6d 20 00 3d f1 9d dc 3c 44 dc 25 3b
       -0.016440239 0.031280924 0.026930781 0.002530829
000210 75 41 0b 3d cd 52 2f 3d 92 10 25 3c 8c 84 a1 bc
       0.03399797 0.042803574 0.010074751 -0.019716524
000220 29 eb be bc 47 7b cd bc ca 97 f4 3c 6e c4 ed 3c
       -0.023305492 -0.025083197 0.029857535 0.029024329
000230 13 b4 15 3b 08 5a 2e 3d 04 5f 6b 3d ac c5 74 3c
       0.0022842928 0.04256633 0.05746366 0.014939707
000240 1e ec 3e 21 b0 11 1e 21 6c e8 76 a1 86 17 35 a2
       6.4687e-19 5.355589e-19 -8.365565e-19 -2.4542527e-18
000250 0c 67 91 21 20 55 6f 20 11 8a 31 a1 0b e6 da 21
       9.852858e-19 2.0272253e-19 -6.015266e-19 1.4833146e-18
000260 b7 15 03 a0 6d 2f 70 3b 82 36 3b 3d 7c cf 03 3d
       -1.1103316e-19 0.0036649362 0.04570628 0.032180294
000270 54 4e bc bc 81 fe 2a 3d 66 b7 d0 3c 1a 0a f9 bc
       -0.022986569 0.04174662 0.025478076 -0.030400325
000280 ca d7 4b 3b 2c 97 f8 bb db e2 c3 ba 02 86 30 3d
       0.0031103962 -0.0075863805 -0.0014944928 0.04309655
000290 d1 fb 94 3d aa f6 43 bc 58 ab 49 3c 46 7e 84 3d
       0.07274593 -0.011960665 0.012308918 0.06469397
0002a0 19 60 12 bc 5c f9 32 bc 34 97 85 3c 03 b1 1a 3d
       -0.008934044 -0.01092371 0.01630745 0.037766468
0002b0 2f ce 5f 3d d4 53 42 3d 4f c7 15 bd c3 6d 9c 3d
       0.05463999 0.047443226 -0.03656703 0.07638123
0002c0 95 ab c1 3d 9e 19 5a bd e7 ed e0 bb b2 0d d4 3c
       0.09456555 -0.053247087 -0.0068642977 0.025885437
0002d0 a0 43 8e 3c af f2 6f 3d 8a 7c 5c 3d fa b4 38 bc
       0.01736623 0.05858105 0.053829707 -0.011273617
0002e0 61 15 d1 3c f0 ad 85 3d 98 65 47 bc 88 73 d0 bb
       0.02552289 0.065273166 -0.012170218 -0.0063614286
0002f0 ec 76 76 3c 40 e4 4d 25 87 a3 fc 2a ff 71 2b 2b
       0.015043002 1.785825e-16 4.4877662e-13 6.0909605e-13
000300 b3 85 1f aa f9 31 fb 2a d8 10 f0 2a 27 8a d0 a9
       -1.4168423e-13 4.4621232e-13 4.2644252e-13 -9.261021e-14
000310 6c c2 88 a8 f9 7e 88 2a 4b 48 c0 3b 48 5e 4f 3d
       -1.518335e-14 2.4246558e-13 0.005867993 0.050627023
000320 49 16 5d 3d 7c fe 48 bc db 90 b8 3c 35 42 4c 3d
       0.05397633 -0.012267705 0.02253001 0.049867827
000330 10 83 52 bc 87 fa cd bb 5b d1 fb 3b ea 9c 50 3c
       -0.012848631 -0.0062859687 0.007684869 0.012732724
000340 d0 2c 97 3d 58 d5 6c 3d ef 59 08 bc 41 fb 14 3d
       0.07381594 0.057820648 -0.008322223 0.036372427
000350 13 cb a2 3d ab 19 91 bc 15 9a 7e ba 75 8b f8 3c
       0.079488896 -0.017712435 -0.0009712291 0.030339936
000360 fa 52 79 21 4c 0b 51 21 b0 cc 73 21 1f 7e 8e 21
       8.44743e-19 7.0826906e-19 8.2602504e-19 9.655678e-19
000370 fb 6e 86 a0 0d 47 c5 a0 02 d8 06 22 3a e6 cd 20
       -2.2773924e-19 -3.3420116e-19 1.827474e-18 3.4880702e-19
000380 7d 2a 22 21 50 f3 80 bc 7a 7e 39 bc b5 47 b2 3b
       5.494397e-19 -0.01574102 -0.011321658 0.005440677
000390 53 0e 0c bc 44 4a ae 3b 17 64 9b bc 6f 64 11 3d
       -0.008548337 0.0053189117 -0.018968625 0.03549617
0003a0 a2 c6 94 3c 5c dd 14 bc d5 5f 0b bc 45 88 f9 bb
       0.018161122 -0.009085979 -0.008506735 -0.0076151215
0003b0 6e 95 3b bb 27 b8 61 3c b7 12 83 3c 28 49 01 bb
       -0.0028623003 0.0137768155 0.016000135 -0.0019727442
0003c0 9f c2 94 3c 21 a3 a4 3c 5c 06 5a ba 11 42 ef bc
       0.018159209 0.020097317 -0.00083169877 -0.029206308
0003d0 d9 05 3f bc 11 a8 01 3c 3a cb 7c bc c0 52 2f 3b
       -0.011659109 0.007913605 -0.015429312 0.0026752204
0003e0 f6 85 04 bc ae 71 65 3d 2a 72 12 3d 88 4b 0b bd
       -0.008088579 0.056016617 0.035753407 -0.03400758
0003f0 bd 78 5f bc b5 c5 2e bc 2b cc e2 3a 12 3c 04 3c
       -0.013639626 -0.010667254 0.0017303278 0.0080709625

conv2.bias f4 [16]
000000 1b 5a 1b bc 2c 07 84 3b c9 f0 e4 bd 22 69 11 3d
       -0.009481932 0.0040291753 -0.111787386 0.035500653
000010 56 b5 65 bb 19 94 3f bd 27 cb 11 3d 82 43 c2 bc
       -0.0035050712 -0.046772096 0.03559413 -0.02371383
000020 10 9b e3 bd 23 ce 09 3b 69 2d a7 3c ed 5a ce b8
       -0.1111356 0.0021027408 0.020407395 -9.839782e-05
000030 75 e9 d2 bc 86 2e ab bd 75 f8 65 bd 27 b6 02 80
       -0.025746087 -0.08358483 -0.05614515 -2.49015e-40

fc1.weight f4 [128, 1296]
000000 75 04 00 00 6d 72 00 00 de f7 00 00 12 d7 01 00
       1.599e-42 4.1048e-41 8.8918e-41 1.68988e-40
000010 1d ff 00 00 b7 d9 01 00 65 39 00 80 a5 c4 00 80
       9.1517e-41 1.69937e-40 -2.0589e-41 -7.0543e-41
000020 a2 28 00 00 dd 18 01 80 76 1c 01 80 ed f2 03 80
       1.4576e-41 -1.00755e-40 -1.02045e-40 -3.62652e-40
000030 5e a2 03 80 13 b8 08 00 1a 53 02 80 12 3b 05 80
       -3.33753e-40 8.00717e-40 -2.13482e-40 -4.80368e-40
000040 81 11 01 00 05 3a 00 80 a1 67 00 80 01 7f 02 80
       9.8115e-41 -2.0813e-41 -3.7175e-41 -2.29231e-40
000050 89 df 09 80 b4 85 0a 00 3c ab 05 00 17 22 0b 00
       -9.06709e-40 9.66319e-40 5.20605e-40 1.02242e-39
000060 f3 11 01 00 3e 6f 01 00 7a 3f 02 00 28 d1 00 80
       9.8274e-41 1.31742e-40 2.06442e-40 -7.5031e-41
000070 a6 2a 05 00 79 1c 0b 00 54 db 0a 00 ba 7c 09 00
       4.74477e-40 1.020405e-39 9.97035e-40 8.71263e-40
000080 74 0e 0c 00 99 a5 0a 80 ac 6f 06 00 9f 68 00 00
       1.107211e-39 -9.7776e-40 5.91073e-40 3.7531e-41
000090 00 e5 01 00 43 29 02 00 09 2b 03 00 06 1c 0b 00
       1.73985e-40 1.98473e-40 2.90945e-40 1.020243e-39
0000a0 23 2c 05 00 6a 17 0a 00 b9 d3 03 00 78 71 04 80
       4.75011e-40 9.26754e-40 3.51458e-40 -4.08047e-40
0000b0 fe e9 00 80 29 87 00 00 37 88 05 80 35 b4 05 80
       -8.394e-41 4.8486e-41 -5.08042e-40 -5.23824e-40
0000c0 6a 91 0d 00 fc 29 0a 80 72 5b 06 00 c7 40 00 80
       1.246026e-39 -9.33416e-40 5.83817e-40 -2.3238e-41
0000d0 22 a2 03 80 76 bd 03 00 64 a6 01 00 9a e9 02 00
       -3.33669e-40 3.43472e-40 1.51525e-40 2.67471e-40
0000e0 9c 7a 07 80 7d 6c 0a 00 44 52 0a 80 e1 79 02 00
       -6.86832e-40 9.57273e-40 -9.47866e-40 2.27393e-40
0000f0 3a 00 03 80 9b 0b 07 00 ac 85 00 00 e0 49 02 00
       -2.75588e-40 6.47012e-40 4.7952e-41 2.10172e-40
000100 41 45 02 00 db 21 06 80 89 2e 04 80 09 1c 05 00
       2.08515e-40 -5.63158e-40 -3.84036e-40 4.69235e-40
000110 82 64 03 80 b7 b0 01 00 5c 28 05 80 f5 ff 01 00
       -3.11562e-40 1.55229e-40 -4.73656e-40 1.83656e-40
000120 b3 7f 00 00 13 d2 02 00 c4 95 01 00 a4 93 05 80
       4.581e-41 2.59031e-40 1.45561e-40 -5.12141e-40
000130 9f 80 09 80 b4 9b 06 00 d0 91 07 80 5c 59 00 00
       -8.7266e-40 6.06869e-40 -6.95156e-40 3.2056e-41
000140 38 46 01 80 9d c7 04 00 2d a8 01 80 1e 3e 09 00
       -1.17025e-40 4.3895e-40 -1.52166e-40 8.48803e-40
000150 15 db 07 00 2e 3d 02 00 d6 d7 08 80 2c 89 05 80
       7.2144e-40 2.05618e-40 -8.12111e-40 -5.08385e-40
000160 a7 08 09 00 ad 3b 01 80 68 f9 04 00 2a 8e 06 00
       8.29623e-40 -1.13243e-40 4.56812e-40 6.02012e-40
000170 5a 93 05 80 72 0d 05 80 db db 00 80 db 93 07 00
       -5.12037e-40 -4.64001e-40 -7.8869e-41 6.95889e-40
000180 58 53 08 80 b4 bb 03 00 5f f1 02 80 5d 8c 0a 00
       -7.64582e-40 3.42842e-40 -2.70259e-40 9.68708e-40
000190 77 97 01 80 ee 3b 07 00 7a ff 09 80 02 93 0a 00
       -1.46171e-40 6.64347e-40 -9.18167e-40 9.71091e-40
0001a0 c2 fd 08 80 18 65 0d 80 18 13 0b 00 23 1d 07 80
       -8.25715e-40 -1.230127e-39 1.01704e-39 -6.53301e-40
0001b0 d8 71 00 00 07 79 02 80 06 3e 0a 00 13 e2 0a 80
       4.084e-41 -2.27087e-40 9.40605e-40 -9.99455e-40
0001c0 44 71 05 00 27 53 02 00 02 bf 00 80 e5 cc 03 80
       4.9981e-40 2.135e-40 -6.852e-41 -3.49009e-40
0001d0 57 2d 05 00 14 d0 01 00 18 97 05 80 97 a6 0b 00
       4.75442e-40 1.6648e-40 -5.1338e-40 1.069952e-39
0001e0 af 8a 06 80 03 56 03 80 50 b8 01 00 db 4f 0a 00
       -6.00763e-40 -3.06362e-40 1.57954e-40 9.47002e-40
0001f0 96 3a 08 00 37 af 06 80 76 14 07 80 6f 68 02 00
       7.557e-40 -6.13868e-40 -6.50188e-40 2.21135e-40
000200 ba 32 08 80 da 90 05 80 cb 0c 09 80 a7 a7 07 80
       -7.52881e-40 -5.1114e-40 -8.31109e-40 -7.02991e-40
000210 d6 f3 08 80 81 97 09 00 c1 1e 09 80 02 b4 03 00
       -8.22156e-40 8.80869e-40 -8.37552e-40 3.40081e-40
000220 26 16 03 80 80 ef 05 00 df 42 04 00 5e 2f 0b 80
       -2.83452e-40 5.45094e-40 3.91331e-40 -1.027183e-39
000230 38 64 01 80 da 50 01 80 65 9c 08 00 a1 02 05 00
       -1.27787e-40 -1.2084e-40 7.90788e-40 4.6012e-40
000240 94 15 01 00 ef f4 01 80 e2 f6 01 00 15 d2 05 80
       9.9576e-41 -1.79701e-40 1.804e-40 -5.34541e-40
000250 73 3a 07 00 6d e4 09 80 6e 9d 05 00 f6 3b 05 00
       6.63816e-40 -9.08463e-40 5.15653e-40 4.80687e-40
000260 82 78 08 80 0b 1d 0b 80 a1 54 05 00 7c aa 04 00
       -7.77914e-40 -1.020609e-39 4.89537e-40 4.285e-40
000270 df 99 04 80 49 17 09 00 a5 76 05 00 f1 01 09 80
       -4.2254e-40 8.34873e-40 5.01739e-40 -8.27216e-40
000280 8a e3 07 80 87 bc 07 00 39 98 01 80 ad a0 c6 80
       -7.24474e-40 7.1048e-40 -1.46443e-40 -1.8241068e-38
000290 29 4c 02 00 81 b3 00 80 74 52 02 80 14 d8 01 80
       2.10992e-40 -6.4394e-41 -2.1325e-40 -1.6935e-40
0002a0 1e 2b 23 80 88 a4 00 80 07 3e 01 00 1d 03 01 80
       -3.22971e-39 -5.9023e-41 1.14087e-40 -9.2952e-41
0002b0 1e d7 01 80 5a d7 01 80 88 53 08 00 bb 06 08 00
       -1.69005e-40 -1.69089e-40 7.6465e-40 7.37098e-40
0002c0 54 c2 03 00 90 63 01 00 68 a8 00 00 25 c5 01 80
       3.45218e-40 1.27552e-40 6.0413e-41 -1.62558e-40
0002d0 2d 08 01 00 3f 70 01 80 7c a0 02 80 bc 2e 01 80
       9.4768e-41 -1.32102e-40 -2.41242e-40 -1.086e-40
0002e0 e7 d7 04 00 08 fb 07 80 83 20 0a 80 6e 6b 00 80
       4.44793e-40 -7.32902e-40 -9.30018e-40 -3.8539e-41
0002f0 e7 f4 00 00 f6 9d 01 00 6a 8e 04 80 ca 2e 07 00
       8.7854e-41 1.48501e-40 -4.1843e-40 6.59633e-40
000300 f0 b1 09 00 d0 d4 03 00 81 9d 05 00 a4 30 05 80
       8.90351e-40 3.51849e-40 5.15679e-40 -4.76626e-40
000310 58 51 04 00 82 50 05 80 3c 3a 01 80 3d ed 01 00
       3.96523e-40 -4.88058e-40 -1.12726e-40 1.7694e-40
000320 d7 28 04 00 73 70 03 80 a5 f1 0c 80 c6 d6 00 80
       3.81993e-40 -3.15846e-40 -1.188712e-39 -7.7046e-41
000330 21 a3 02 00 6d 76 00 80 48 3c 14 80 c1 76 01 80
       2.4219e-40 -4.2483e-41 -1.858335e-39 -1.34436e-40
000340 9c 08 07 80 b4 f4 08 00 e3 11 0c 00 fc 9a 09 00
       -6.45937e-40 8.22467e-40 1.108442e-39 8.82117e-40
000350 80 d0 07 00 e3 50 0c 80 d6 90 00 00 7c 59 03 80
       7.17644e-40 -1.131043e-39 5.1957e-41 -3.07607e-40
000360 4a b1 00 80 c6 8b 00 80 0d dc 03 00 2a 52 03 80
       -6.36e-41 -5.0141e-41 3.54446e-40 -3.04981e-40
000370 aa 6e 01 00 1c 94 00 00 98 09 09 80 2a 4a 0a 80
       1.31534e-40 5.3132e-41 -8.29961e-40 -9.4496e-40
000380 f3 d3 06 00 cf ce 00 80 79 bc 00 00 49 00 00 80
       6.27046e-40 -7.4189e-41 6.7611e-41 -1.02e-43
000390 a6 1b 09 80 1d e5 08 00 f9 14 0a 80 73 8d 03 00
       -8.36438e-40 8.16874e-40 -9.25879e-40 3.26249e-40
0003a0 ee bb 03 80 5c 3e cf 00 58 99 00 00 a8 6a 01 80
       -3.42923e-40 1.9032318e-38 5.501e-41 -1.30097e-40
0003b0 52 3f 00 00 e4 3d 09 00 e8 46 03 00 f8 99 08 00
       2.2715e-41 8.48722e-40 3.00943e-40 7.89918e-40
0003c0 a1 f3 00 00 a2 0c 00 80 dd fb 01 80 fd 51 00 00
       8.7398e-41 -4.532e-42 -1.82187e-40 2.9412e-41
0003d0 93 ae 0a 80 b7 c2 03 80 c3 86 0b 80 bd 9b 04 00
       -9.8098e-40 -3.45357e-40 -1.058534e-39 4.2321e-40
0003e0 e7 3b 01 00 0b ca 03 80 8e a7 06 00 eb 23 01 00
       1.13324e-40 -3.47986e-40 6.1112e-40 1.0472e-40
0003f0 d1 d9 00 80 be a0 09 00 5a 3d 00 80 7c 13 00 80
       -7.8138e-41 8.84183e-40 -2.2009e-41 -6.99e-42

fc1.bias f4 [128]
000000 f0 41 da 9a d1 ef 01 ad 38 82 08 ac 3d ab 90 88
       -9.0269215e-23 -7.386051e-12 -1.9399048e-12 -8.706943e-34
000010 59 9a 8c 3c 77 45 3d 8e e3 84 66 3c ae 2b e6 a9
       0.017163442 -2.3329495e-30 0.014069769 -1.0221629e-13
000020 18 89 bd 3b da 7f dc 3b 6d eb fb a8 53 7a f7 3b
       0.005784165 0.0067291083 -2.7968698e-14 0.007552424
000030 24 d8 ac 3c d5 be 11 b4 5f 00 d4 ac 0e 81 b3 a3
       0.021099158 -1.3573602e-07 -6.0254436e-12 -1.9461876e-17
000040 c1 6a d0 3c 9b e1 e4 3b 25 c1 7e 3c d7 3c ec a5
       0.02544153 0.006984902 0.015548979 -4.09807e-16
000050 8b d0 b5 b1 bb ae 7d 3c 47 b1 b0 ae 07 af 10 31
       -5.291502e-09 0.0154835535 -8.035044e-11 2.105425e-09
000060 a9 95 1b 3c 83 81 d6 3c bb c6 5c ac be 64 c1 ad
       0.009496131 0.026184803 -3.1374198e-12 -2.1986298e-11
000070 8a 87 6c 3c 7e cf 13 a4 56 34 a7 3c 25 e7 62 3c
       0.014436612 -3.2051297e-17 0.020410698 0.013849054
000080 02 e1 c1 9d 94 f7 43 bb e9 28 e1 9c 2d b8 81 b0
       -5.1319327e-21 -0.0029902207 -1.4899826e-21 -9.438331e-10
000090 79 c4 d4 3c 09 c2 35 3c 18 67 3f 85 ab b8 50 b1
       0.025972592 0.011093625 -8.999712e-36 -3.0372955e-09
0000a0 50 da a5 a8 34 31 06 3c 31 f7 0b a1 20 ac 93 3c
       -1.8413358e-14 0.008190442 -4.7422187e-19 0.018026412
0000b0 ea c7 aa 96 ac 93 c6 90 58 89 af 3c e2 a9 d9 8f
       -2.7591145e-25 -7.8324754e-29 0.021427795 -2.1463289e-29
0000c0 38 70 ed 3c 21 bd 63 83 e3 01 01 3d db 7f 35 a4
       0.028984174 -6.6926414e-37 0.03149594 -3.9356416e-17
0000d0 b2 3e c8 a6 3d 38 3d a7 4e cf 22 a4 0d 19 e7 3c
       -1.3894781e-15 -2.6259506e-15 -3.5303744e-17 0.028210187
0000e0 27 2b 96 ab 94 f8 7d 3c 79 cc e2 a4 b3 05 aa 3c
       -1.0670118e-12 0.01550116 -9.8358267e-17 0.02075467
0000f0 14 10 57 97 cd 0b a3 96 e0 a6 e6 a9 4e 23 98 3c
       -6.949054e-25 -2.6341518e-25 -1.0243e-13 0.018571522
000100 52 68 b9 3c 08 b3 fb 3b bd 2e a4 ae 5c f0 82 89
       0.022632752 0.0076812543 -7.466159e-11 -3.1522394e-33
000110 15 d9 07 3c aa b9 ce 3b ba 5c a0 9a 0a df 7e b8
       0.0082915025 0.006308754 -6.632426e-23 -6.076604e-05
000120 b8 c2 25 ac 00 79 ea 3b ee d8 aa a6 0e 63 a5 3b
       -2.3556e-12 0.0071555376 -1.1854919e-15 0.0050472086
000130 33 25 83 3c 54 cb 41 b3 b1 67 2d ac ee 87 a7 3b
       0.016008949 -4.512124e-08 -2.464234e-12 0.0051126396
000140 d0 de a8 3c 99 16 8e 3c 78 cb 58 ae 55 e2 60 9c
       0.020614058 0.01734476 -4.929343e-11 -7.440791e-22
000150 e4 44 59 3c d1 39 bd 3c bd b9 d3 3c 2a 98 dc 3c
       0.013261054 0.023098858 0.025845403 0.026928026
000160 79 de d4 3c c9 3d 7e 98 76 3d 00 3d d2 9e 58 ab
       0.02598499 -3.2859924e-24 0.031308614 -7.6959023e-13
000170 ab 2a c4 9d 2f 30 8e 3c 92 11 41 3c 4b bb df 3c
       -5.1924886e-21 0.01735696 0.011783974 0.027310988
000180 ae 67 31 ab 9a 29 55 b3 56 ca 85 3c 34 3b d8 3b
       -6.3026917e-13 -4.9630763e-08 0.016331833 0.0065988544
000190 fd b3 d6 9d 3b bd 80 a0 ed a2 ce 3c dc 6a d6 3c
       -5.683143e-21 -2.1809266e-19 0.025224173 0.026174001
0001a0 b2 31 2d b2 8c a3 21 80 b8 46 e2 3b 67 e5 47 b7
       -1.0081225e-08 -3.089241e-39 0.006905403 -1.1914736e-05
0001b0 94 72 f3 a4 bc ad 86 3c 1b 40 7b 90 c9 1d 7d a8
       -1.05578554e-16 0.016440265 -4.9550407e-29 -1.405078e-14
0001c0 ab 0c 2f 9a 65 fc d6 3b 54 eb 06 af 58 2f c6 3c
       -3.6199385e-23 0.0065608495 -1.2270834e-10 0.024192497
0001d0 73 ba 21 3c bb ac d6 93 be a4 21 ae c2 3f 70 3c
       0.009871113 -5.419152e-27 -3.6753482e-11 0.014663639
0001e0 a8 86 7e 3c cd a0 38 9a 8b 9e 74 3c a1 32 9f 8d
       0.015535034 -3.8180202e-23 0.014930378 -9.81132e-31
0001f0 45 1e 5b 3c ab 50 c4 9d 28 29 14 aa 0f c5 b5 3b
       0.013373916 -5.1964177e-21 -1.315932e-13 0.005547173

fc2.weight f4 [2, 128]
000000 a2 76 2a 37 ba 03 f4 2d 8d 88 a8 2e 23 9e a3 b1
       1.0160411e-05 2.7741243e-11 7.664012e-11 -4.7619024e-09
000010 2e 9a b0 bc e6 6e 2e b7 60 ba 02 be 92 45 ea 33
       -0.021557894 -1.0397029e-05 -0.12766409 1.0909129e-07
000020 8b a5 8b 3c 11 98 7a bd 52 93 21 9b 3d 06 c4 bd
       0.01704671 -0.061180178 -1.336521e-22 -0.09571502
000030 01 fb 24 bd e3 a6 ac bb d9 64 79 36 e6 9e 63 b5
       -0.04027844 -0.005268918 3.7162592e-06 -8.479532e-07
000040 0e 74 29 3e a9 c8 97 3c 63 a9 9c 3d fc 8b 2d 9d
       0.16548178 0.0185283 0.076494955 -2.296873e-21
000050 10 b5 be a1 8b b3 2b 3d de 35 3e ba 90 96 ae 2c
       -1.2922828e-18 0.041919272 -0.00072559516 4.9620932e-12
000060 25 73 d0 bd d4 bf 15 3e 0a 9d 2c aa 2f 9d 81 30
       -0.10178212 0.14623958 -1.5331153e-13 9.43066e-10
000070 65 10 5b 3a 0f d9 30 36 9e 0a 29 3e 3b 2c 88 3d
       0.000835663 2.6352388e-06 0.16507956 0.06649061
000080 dd 22 12 ab ed 65 fc 39 b1 ea 22 ad 01 aa 00 80
       -5.1918e-13 0.00048141126 -9.260746e-12 -6.0986e-41
000090 93 7d 67 be 25 1a b8 3d a9 c0 28 b6 11 7d ca a8
       -0.22606497 0.08989362 -2.5146094e-06 -2.2480744e-14
0000a0 22 18 04 33 a2 f1 a0 bd 8c 0a a7 39 16 93 13 be
       3.0755594e-08 -0.07858588 0.0003186058 -0.14411578
0000b0 9f cf 00 00 aa c3 b1 b5 1b a0 2b 3e 9e 03 73 25
       7.448e-41 -1.3244473e-06 0.16760294 2.1078116e-16
0000c0 91 bd 41 be 48 e2 f0 b7 81 34 20 3d 43 04 67 33
       -0.1891997 -2.87156e-05 0.03911257 5.3787755e-08
0000d0 c7 67 00 00 9f bf c2 2c 67 62 56 a6 b3 be 1c 3e
       3.7228e-41 5.535086e-12 -7.4379525e-16 0.15307121
0000e0 e0 dd 01 00 0c da b3 bc c0 dd 00 00 63 72 54 be
       1.71429e-40 -0.021954559 7.9549e-41 -0.2074676
0000f0 41 29 15 2c f3 5f e5 aa e6 47 ee b9 eb 95 0d be
       2.1197074e-12 -4.074515e-13 -0.00045448466 -0.1382672
000100 fe de 61 3c 47 7c 8a 3d 1d 5c 1f 30 8d 9f 1e 80
       0.013786076 0.06761985 5.7974764e-10 -2.812301e-39
000110 39 d0 84 bd eb 96 b4 3d cf 66 d6 90 d2 8f 80 ba
       -0.06485028 0.08817848 -8.456652e-29 -0.0009808487
000120 a4 07 db ad 03 ab 7e bd 9c 70 0c a8 6b 55 2a bd
       -2.490081e-11 -0.06217481 -7.7959794e-15 -0.041585367
000130 88 f2 9a bc 3d 5f 1b 85 76 91 0d 2e 68 06 52 3d
       -0.018914476 -7.3055575e-36 3.2188884e-11 0.05127564
000140 d5 89 0d 3e 95 18 18 be c2 b8 64 b9 55 1e ee 33
       0.1382211 -0.14853127 -0.00021812602 1.1088256e-07
000150 14 c8 44 3d 26 78 12 3d 3a 3e 20 3e 2f 7d 37 bc
       0.048042372 0.035759114 0.15648738 -0.01119928
000160 05 8c 29 3e 94 29 fe 37 66 fd 35 3e c6 0f bd 22
       0.1655732 3.029852e-05 0.17772445 5.1245253e-18
000170 77 61 f6 b8 c5 a8 09 3e da 1e cd 3c 73 4f 4c bd
       -0.00011748348 0.13443287 0.025039125 -0.049880456
000180 41 35 00 00 0e 7f 82 b9 d1 e7 83 bd 34 6d 4f 3d
       1.9104e-41 -0.00024890195 -0.064407 0.050641254
000190 29 fe 00 80 15 b4 fc b3 3b e4 1f 3e 27 7a ba 3d
       -9.1175e-41 -1.1767421e-07 0.15614407 0.0910533
0001a0 c3 cc ac 39 6e a8 89 2f 08 5c 78 bd f5 8a 48 3c
       0.00032958956 2.503983e-10 -0.060634643 0.012240161
0001b0 e1 12 ad 38 e0 f5 03 be 0b b8 61 b1 85 ab 7b 2e
       8.252799e-05 -0.12886763 -3.2846426e-09 5.7223132e-11
0001c0 31 4b 1e b4 79 55 04 3e 66 79 15 b2 ec 10 46 be
       -1.4742251e-07 0.1292323 -8.700544e-09 -0.19342393
0001d0 73 98 4b 3d d0 a0 3c 39 63 9d 31 30 d1 61 37 bd
       0.049705934 0.00017988984 6.4615885e-10 -0.04477102
0001e0 9a 22 b1 bd 66 63 d8 2b 99 5d 21 3e f4 c3 55 b6
       -0.08649178 1.5375312e-12 0.15758361 -3.1853533e-06
0001f0 98 1b e1 3d 31 13 3e b8 04 54 23 36 e7 45 83 bd
       0.10991591 -4.5317403e-05 2.4337796e-06 -0.06409817
000200 07 77 f1 b7 5f 67 bf 2e 85 e7 d1 2c 4c e3 0a 2f
       -2.8784865e-05 8.704037e-11 5.965841e-12 1.2631779e-10
000210 6b 61 27 be 34 2b 8f 36 3c c0 50 bd 5e 98 28 b4
       -0.16345756 4.2667616e-06 -0.05096458 -1.570165e-07
000220 07 17 40 bd c3 a6 94 bd 0c 39 02 00 82 fe d9 bd
       -0.04689696 -0.0725837 2.04136e-40 -0.10644247
000230 12 75 22 3e dd bc 22 3b 86 64 08 35 7f e1 bc 33
       0.15864971 0.002483181 5.081023e-07 8.79545e-08
000240 7a 42 cd bc 5d cb bd bd 7d fe 06 be 43 59 ea 9b
       -0.025056113 -0.09267304 -0.13183017 -3.8769737e-22
000250 2c ad 00 80 49 6b 0d be 4a db 21 3a 4a 7b cc 2d
       -6.2122e-41 -0.13810457 0.0006174339 2.3246866e-11
000260 34 fc 64 3d 30 f0 91 3c d5 95 df 25 93 e4 0c 2f
       0.055904582 0.017814726 3.8785864e-16 1.2814132e-10
000270 3d e6 03 be 54 51 9d 36 1d ad ad bc 5a 50 c2 3d
       -0.12880798 4.6884325e-06 -0.02120071 0.09487982
000280 70 84 2f 33 af 8a ed bc 0c fc bc ae da bd cb 01
       4.0865814e-08 -0.028996794 -8.594023e-11 7.4842847e-38
000290 7c e6 f8 bc bd 3d e9 bd 6a 84 03 b5 ac f6 31 b6
       -0.030383341 -0.11388729 -4.899399e-07 -2.6518637e-06
0002a0 3f 35 4f b0 92 b5 99 3d 4e f1 12 b9 6d f3 b6 3d
       -7.538183e-10 0.07505335 -0.00014013538 0.089331485
0002b0 f9 62 e8 81 92 61 8a 30 50 8b 91 bc 5d dd d0 2a
       -8.536536e-38 1.0068553e-09 -0.017766625 3.7101824e-13
0002c0 e4 63 85 3d b4 25 df 39 5a 81 6d 3e a7 7a 47 b3
       0.06513193 0.00042561966 0.23193875 -4.644485e-08
0002d0 10 46 00 00 65 12 ba 2d ca 71 f6 27 34 8b 9c 3d
       2.5134e-41 2.115392e-11 6.8402086e-15 0.076437384
0002e0 c2 5b 00 80 a9 a0 03 3e 1e 66 8e 19 7d 79 87 3d
       -3.2917e-41 0.12854256 1.47237e-23 0.06614969
0002f0 d7 40 bc ac f0 26 b4 8a 42 9b 83 3a 72 45 be bd
       -5.35048e-12 -1.7348016e-32 0.0010040777 -0.092905894
000300 b3 32 38 3e 13 b1 a3 bd 33 5e 17 b1 9a 4f 00 00
       0.1798809 -0.079927586 -2.2026938e-09 2.8556e-41
000310 72 ce 3c 3d c2 f8 92 bd ae 0c a8 86 b4 c5 03 3a
       0.04609532 -0.07176353 -6.321321e-35 0.00050267135
000320 8d 36 72 ae c3 c6 83 bd 9a 8e 3c a9 92 34 a6 bd
       -5.507288e-11 -0.06434395 -4.1868073e-14 -0.08115496
000330 10 a5 28 be 8f 5e 37 26 7f 0c 47 af bf 81 11 bd
       -0.16469216 6.361903e-16 -1.8103384e-10 -0.035524126
000340 e1 5f a4 3c 01 e9 c5 bd 54 3e e0 b9 e5 d4 2a 30
       0.02006525 -0.096635826 -0.00042771047 6.214818e-10
000350 37 5d 31 be 8a 53 52 3e ff a8 73 3d 52 1c 2c 3e
       -0.17320715 0.2053968 0.05948734 0.16807678
000360 91 fe 5d 3c 38 3b 6d 35 c3 ea b3 3d 03 a3 00 00
       0.013549463 8.8375555e-07 0.087850116 5.8478e-41
000370 9c 7b ce b7 22 3d 56 bd fc 66 01 be 55 b0 2b 3e
       -2.4614674e-05 -0.052304395 -0.12636942 0.16766484
000380 e6 fc 0f 00 7e e8 60 39 68 c6 13 be 27 5f a3 bd
       1.468255e-39 0.00021448915 -0.14431155 -0.07977133
000390 3e d4 e6 20 a4 52 a6 b1 57 b5 e3 bc 1f 34 54 3e
       3.9103966e-19 -4.840631e-09 -0.02779643 0.20723008
0003a0 00 b9 90 36 85 53 d1 b5 0b f5 ef bd 61 0b 90 39
       4.3130713e-06 -1.5596021e-06 -0.1171666 0.00027474298
0003b0 99 f7 ae b8 1c 18 44 bd db 39 f2 31 6a bd 4e 2f
       -8.343085e-05 -0.047874555 7.0497044e-09 1.8802884e-10
0003c0 19 ef 93 b3 88 96 ea bd 32 8b 28 30 f5 ca a2 3c
       -6.8887125e-08 -0.11454493 6.131585e-10 0.019872168
0003d0 18 80 9e bd b1 e1 2c b7 df 91 9c 2e 4a a9 18 be
       -0.07739276 -1.0304547e-05 7.1199706e-11 -0.14908329
0003e0 1a 0c 08 be d8 45 b3 29 8f 99 85 bd 37 f4 88 b7
       -0.13285866 7.961313e-14 -0.065234296 -1.6326185e-05
0003f0 d6 db 72 bd a1 bd 61 37 73 72 a3 35 0a bb 8f 3d
       -0.059291683 1.34551965e-05 1.2177755e-06 0.07018097

fc2.bias f4 [2]
000000 59 d4 3a bd 29 7d 59 3a
       -0.045612667 0.00082965434
